…
-
2025-02-11 21:03:33 - INFO - starting new training !!!!
2025-02-11 21:03:33 - INFO - ------------------------------------------------------------------------------------------------
2025-02-11 21:03:33 - INFO - Namespace(batch=256, data_dir='', embed_dim=768, epoch=50, gamma=0.1, log_dir='logs', log_interval=10, lr=0.0001, model_path=None, save_dir='model_parameter', save_freq=5, step_size=2, weight_fac=0.85)
2025-02-11 21:03:33 - INFO - parameters are being saved at :model_parameter/0
2025-02-11 21:03:33 - INFO - BidPredictor(
  (Region_compressor): Sequential(
    (0): Sequential(
      (0): Linear(in_features=768, out_features=192, bias=True)
      (1): BatchNorm1d(192, eps=1e-05, momentum=0.1, affine=True, track_running_stats=True)
      (2): SiLU()
    )
    (1): Sequential(
      (0): Linear(in_features=192, out_features=48, bias=True)
      (1): BatchNorm1d(48, eps=1e-05, momentum=0.1, affine=True, track_running_stats=True)
      (2): SiLU()
    )
    (2): Sequential(
      (0): Linear(in_features=48, out_features=12, bias=True)
      (1): BatchNorm1d(12, eps=1e-05, momentum=0.1, affine=True, track_running_stats=True)
      (2): SiLU()
    )
    (3): Sequential(
      (0): Linear(in_features=12, out_features=3, bias=True)
      (1): BatchNorm1d(3, eps=1e-05, momentum=0.1, affine=True, track_running_stats=True)
      (2): SiLU()
    )
  )
  (City_compressor): Sequential(
    (0): Sequential(
      (0): Linear(in_features=768, out_features=192, bias=True)
      (1): BatchNorm1d(192, eps=1e-05, momentum=0.1, affine=True, track_running_stats=True)
      (2): SiLU()
    )
    (1): Sequential(
      (0): Linear(in_features=192, out_features=48, bias=True)
      (1): BatchNorm1d(48, eps=1e-05, momentum=0.1, affine=True, track_running_stats=True)
      (2): SiLU()
    )
    (2): Sequential(
      (0): Linear(in_features=48, out_features=12, bias=True)
      (1): BatchNorm1d(12, eps=1e-05, momentum=0.1, affine=True, track_running_stats=True)
      (2): SiLU()
    )
    (3): Sequential(
      (0): Linear(in_features=12, out_features=3, bias=True)
      (1): BatchNorm1d(3, eps=1e-05, momentum=0.1, affine=True, track_running_stats=True)
      (2): SiLU()
    )
  )
  (alignment): Sequential(
    (0): Sequential(
      (0): Linear(in_features=44, out_features=8, bias=True)
      (1): BatchNorm1d(8, eps=1e-05, momentum=0.1, affine=True, track_running_stats=True)
      (2): SiLU()
    )
    (1): Sequential(
      (0): Linear(in_features=8, out_features=4, bias=True)
      (1): BatchNorm1d(4, eps=1e-05, momentum=0.1, affine=True, track_running_stats=True)
      (2): SiLU()
    )
  )
  (backbone): Sequential(
    (0): Sequential(
      (0): Linear(in_features=18, out_features=64, bias=True)
      (1): BatchNorm1d(64, eps=1e-05, momentum=0.1, affine=True, track_running_stats=True)
      (2): SiLU()
    )
    (1): Sequential(
      (0): Linear(in_features=64, out_features=128, bias=True)
      (1): BatchNorm1d(128, eps=1e-05, momentum=0.1, affine=True, track_running_stats=True)
      (2): SiLU()
    )
  )
  (classifier): Linear(in_features=128, out_features=2, bias=True)
)
2025-02-11 21:03:48 - INFO - torch.Size([256, 8])
2025-02-11 21:03:48 - INFO - epoch:0/50 iteration:0/257 batch loss is :5.0092
2025-02-11 21:03:48 - INFO - q loss:5.113706588745117 cls_loss:0.6625645756721497
2025-02-11 21:04:01 - INFO - torch.Size([256, 8])
2025-02-11 21:04:14 - INFO - torch.Size([256, 8])
2025-02-11 21:04:27 - INFO - torch.Size([256, 8])
…
