…
2025-02-12 02:00:56 - INFO - starting new training !!!!
2025-02-12 02:00:56 - INFO - ------------------------------------------------------------------------------------------------
2025-02-12 02:00:56 - INFO - Namespace(batch=256, data_dir='', embed_dim=768, epoch=50, gamma=0.1, log_dir='logs', log_interval=10, lr=0.0001, model_path=None, save_dir='model_parameter', save_freq=5, step_size=2, weight_fac=0.85)
2025-02-12 02:00:56 - INFO - parameters are being saved at :model_parameter/2
2025-02-12 02:00:56 - INFO - BidPredictor(
  (Region_compressor): Sequential(
    (0): Residual(
      (silu): SiLU()
      (normalise1): BatchNorm1d(192, eps=1e-05, momentum=0.1, affine=True, track_running_stats=True)
      (normalise2): BatchNorm1d(48, eps=1e-05, momentum=0.1, affine=True, track_running_stats=True)
      (layer1): Linear(in_features=768, out_features=192, bias=True)
      (layer2): Linear(in_features=192, out_features=48, bias=True)
      (project): Linear(in_features=768, out_features=48, bias=True)
    )
    (1): Residual(
      (silu): SiLU()
      (normalise1): BatchNorm1d(12, eps=1e-05, momentum=0.1, affine=True, track_running_stats=True)
      (normalise2): BatchNorm1d(3, eps=1e-05, momentum=0.1, affine=True, track_running_stats=True)
      (layer1): Linear(in_features=48, out_features=12, bias=True)
      (layer2): Linear(in_features=12, out_features=3, bias=True)
      (project): Linear(in_features=48, out_features=3, bias=True)
    )
  )
  (City_compressor): Sequential(
    (0): Residual(
      (silu): SiLU()
      (normalise1): BatchNorm1d(192, eps=1e-05, momentum=0.1, affine=True, track_running_stats=True)
      (normalise2): BatchNorm1d(48, eps=1e-05, momentum=0.1, affine=True, track_running_stats=True)
      (layer1): Linear(in_features=768, out_features=192, bias=True)
      (layer2): Linear(in_features=192, out_features=48, bias=True)
      (project): Linear(in_features=768, out_features=48, bias=True)
    )
    (1): Residual(
      (silu): SiLU()
      (normalise1): BatchNorm1d(12, eps=1e-05, momentum=0.1, affine=True, track_running_stats=True)
      (normalise2): BatchNorm1d(3, eps=1e-05, momentum=0.1, affine=True, track_running_stats=True)
      (layer1): Linear(in_features=48, out_features=12, bias=True)
      (layer2): Linear(in_features=12, out_features=3, bias=True)
      (project): Linear(in_features=48, out_features=3, bias=True)
    )
  )
  (alignment): Sequential(
    (0): Residual(
      (silu): SiLU()
      (normalise1): BatchNorm1d(8, eps=1e-05, momentum=0.1, affine=True, track_running_stats=True)
      (normalise2): BatchNorm1d(4, eps=1e-05, momentum=0.1, affine=True, track_running_stats=True)
      (layer1): Linear(in_features=44, out_features=8, bias=True)
      (layer2): Linear(in_features=8, out_features=4, bias=True)
      (project): Linear(in_features=44, out_features=4, bias=True)
    )
  )
  (backbone): Sequential(
    (0): Sequential(
      (0): Linear(in_features=18, out_features=64, bias=True)
      (1): BatchNorm1d(64, eps=1e-05, momentum=0.1, affine=True, track_running_stats=True)
      (2): SiLU()
    )
    (1): Sequential(
      (0): Linear(in_features=64, out_features=128, bias=True)
      (1): BatchNorm1d(128, eps=1e-05, momentum=0.1, affine=True, track_running_stats=True)
      (2): SiLU()
    )
  )
  (classifier): Linear(in_features=128, out_features=2, bias=True)
)
2025-02-12 02:01:25 - INFO - epoch:0/50 iteration:0/257 batch loss is :8.3103
2025-02-12 02:01:25 - INFO - q loss:5.547976493835449 cls_loss:3.594569444656372
2025-02-12 02:01:25 - INFO - Gradients of model parameters:
2025-02-12 02:01:25 - INFO - Region_compressor.0.normalise1.weight: tensor([ … device='cuda:0')
2025-02-12 02:01:25 - INFO - Region_compressor.0.normalise1.bias: tensor([… device='cuda:0')
…
